…
s","executionInfo":{"status":"ok","timestamp":1716916729778,"user_tz":-540,"elapsed":17,"user":{"displayName":"la_vish","userId":"08757602867317224711"}},"colab":{"base_uri":"https://localhost:8080/"},"outputId":"31e4c35a-ebb8-4c69-a313-48f8f0a41795"},"execution_count":39,"outputs":[{"output_type":"stream","name":"stdout","text":["Model: \"sequential_1\"\n","_________________________________________________________________\n"," Layer (type)                Output Shape              Param #   \n","=================================================================\n"," conv2d_3 (Conv2D)           (None, 33, 33, 416)       11648     \n","                                                                 \n"," max_pooling2d_3 (MaxPoolin  (None, 16, 16, 416)       0         \n"," g2D)                                                            \n","                                                                 \n"," dropout_5 (Dropout)         (None, 16, 16, 416)       0         \n","                                                                 \n"," conv2d_4 (Conv2D)           (None, 14, 14, 80)        299600    \n","                                                                 \n"," max_pooling2d_4 (MaxPoolin  (None, 7, 7, 80)          0         \n"," g2D)                                                            \n","                                                                 \n"," dropout_6 (Dropout)         (None, 7, 7, 80)          0         \n","                                                                 \n"," conv2d_5 (Conv2D)           (None, 5, 5, 208)         149968    \n","                                                                 \n"," max_pooling2d_5 (MaxPoolin  (None, 2, 2, 208)         0         \n"," g2D)                                                            \n","                                                                 \n"," dropout_7 (Dropout)         (None, 2, 2, 208)         0         \n","                                                                 \n"," flatten_1 (Flatten)         (None, 832)               0         \n","                                                                 \n"," dense_3 (Dense)             (None, 288)               239904    \n","                                                                 \n"," dropout_8 (Dropout)         (None, 288)               0         \n","                                                                 \n"," dense_4 (Dense)             (None, 400)               115600    \n","                                                                 \n"," dropout_9 (Dropout)         (None, 400)               0         \n","                                                                 \n"," dense_5 (Dense)             (None, 7)                 2807      \n","                                                                 \n","=================================================================\n","Total params: 819527 (3.13 MB)\n","Trainable params: 819527 (3.13 MB)\n","Non-trainable params: 0 (0.00 Byte)\n","_________________________________________________________________\n"]}]},{"cell_type":"code","source":["import shutil\n","# 원본 경로\n","s
…
